…
    (1): ReLU(inplace=True)
  )
  (conv_original_size1): Sequential(
    (0): Conv2d(64, 64, kernel_size=(3, 3), stride=(1, 1), padding=(1, 1))
    (1): ReLU(inplace=True)
  )
  (conv_original_size2): Sequential(
    (0): Conv2d(192, 64, kernel_size=(3, 3), stride=(1, 1), padding=(1, 1))
    (1): ReLU(inplace=True)
  )
  (conv_last): Conv2d(64, 1, kernel_size=(1, 1), stride=(1, 1))
)
----------------------------------------------------------------
        Layer (type)               Output Shape         Param #
================================================================
            Conv2d-1         [-1, 64, 512, 512]           1,792
              ReLU-2         [-1, 64, 512, 512]               0
            Conv2d-3         [-1, 64, 512, 512]          36,928
              ReLU-4         [-1, 64, 512, 512]               0
            Conv2d-5         [-1, 64, 256, 256]           9,408
            Conv2d-6         [-1, 64, 256, 256]           9,408
       BatchNorm2d-7         [-1, 64, 256, 256]             128
       BatchNorm2d-8         [-1, 64, 256, 256]             128
              ReLU-9         [-1, 64, 256, 256]               0
             ReLU-10         [-1, 64, 256, 256]               0
        MaxPool2d-11         [-1, 64, 128, 128]               0
        MaxPool2d-12         [-1, 64, 128, 128]               0
           Conv2d-13         [-1, 64, 128, 128]          36,864
           Conv2d-14         [-1, 64, 128, 128]          36,864
      BatchNorm2d-15         [-1, 64, 128, 128]             128
      BatchNorm2d-16         [-1, 64, 128, 128]             128
             ReLU-17         [-1, 64, 128, 128]               0
             ReLU-18         [-1, 64, 128, 128]               0
           Conv2d-19         [-1, 64, 128, 128]          36,864
           Conv2d-20         [-1, 64, 128, 128]          36,864
      BatchNorm2d-21         [-1, 64, 128, 128]             128
      BatchNorm2d-22         [-1, 64, 128, 128]             128
             ReLU-23         [-1, 64, 128, 128]               0
             ReLU-24         [-1, 64, 128, 128]               0
       BasicBlock-25         [-1, 64, 128, 128]               0
       BasicBlock-26         [-1, 64, 128, 128]               0
           Conv2d-27         [-1, 64, 128, 128]          36,864
           Conv2d-28         [-1, 64, 128, 128]          36,864
      BatchNorm2d-29         [-1, 64, 128, 128]             128
      BatchNorm2d-30         [-1, 64, 128, 128]             128
             ReLU-31         [-1, 64, 128, 128]               0
             ReLU-32         [-1, 64, 128, 128]               0
           Conv2d-33         [-1, 64, 128, 128]          36,864
           Conv2d-34         [-1, 64, 128, 128]          36,864
      BatchNorm2d-35         [-1, 64, 128, 128]             128
      BatchNorm2d-36         [-1, 64, 128, 128]             128
             ReLU-37         [-1, 64, 128, 128]               0
             ReLU-38         [-1, 64, 128, 128]               0
       BasicBlock-39         [-1, 64, 128, 128]               0
       BasicBlock-40         [-1, 64, 128, 128]               0
           Conv2d-41         [-1, 64, 128, 128]          36,864
           Conv2d-42         [-1, 64, 128, 128]          36,864
      BatchNorm2d-43         [-1, 64, 128, 128]             128
      BatchNorm2d-44         [-1, 64, 128, 128]             128
             ReLU-45         [-1, 64, 128, 128]               0
             ReLU-46         [-1, 64, 128, 128]               0
           Conv2d-47         [-1, 64, 128, 128]          36,864
           Conv2d-48         [-1, 64, 128, 128]          36,864
      BatchNorm2d-49         [-1, 64, 128, 128]             128
      BatchNorm2d-50         [-1, 64, 128, 128]             128
             ReLU-51         [-1, 64, 128, 128]               0
             ReLU-52         [-1, 64, 128, 128]               0
       BasicBlock-53         [-1, 64, 128, 128]               0
       BasicBlock-54         [-1, 64, 128, 128]               0
           Conv2d-55          [-1, 128, 64, 64]          73,728
           Conv2d-56          [-1, 128, 64, 64]          73,728
      BatchNorm2d-57          [-1, 128, 64, 64]             256
      BatchNorm2d-58          [-1, 128, 64, 64]             256
             ReLU-59          [-1, 128, 64, 64]               0
             ReLU-60          [-1, 128, 64, 64]               0
           Conv2d-61          [-1, 128, 64, 64]         147,456
           Conv2d-62          [-1, 128, 64, 64]         147,456
      BatchNorm2d-63          [-1, 128, 64, 64]             256
      BatchNorm2d-64          [-1, 128, 64, 64]             256
           Conv2d-65          [-1, 128, 64, 64]           8,192
           Conv2d-66          [-1, 128, 64, 64]           8,192
      BatchNorm2d-67          [-1, 128, 64, 64]             256
      BatchNorm2d-68          [-1, 128, 64, 64]             256
             ReLU-69          [-1, 128, 64, 64]               0
             ReLU-70          [-1, 128, 64, 64]               0
       BasicBlock-71          [-1, 128, 64, 64]               0
       BasicBlock-72          [-1, 128, 64, 64]               0
           Conv2d-73          [-1, 128, 64, 64]         147,456
           Conv2d-74          [-1, 128, 64, 64]         147,456
      BatchNorm2d-75          [-1, 128, 64, 64]             256
      BatchNorm2d-76          [-1, 128, 64, 64]             256
             ReLU-77          [-1, 128, 64, 64]               0
             ReLU-78          [-1, 128, 64, 64]               0
           Conv2d-79          [-1, 128, 64, 64]         147,456
           Conv2d-80          [-1, 128, 64, 64]         147,456
      BatchNorm2d-81          [-1, 128, 64, 64]             256
      BatchNorm2d-82          [-1, 128, 64, 64]             256
             ReLU-83          [-1, 128, 64, 64]               0
             ReLU-84          [-1, 128, 64, 64]               0
       BasicBlock-85          [-1, 128, 64, 64]               0
       BasicBlock-86          [-1, 128, 64, 64]               0
           Conv2d-87          [-1, 128, 64, 64]         147,456
           Conv2d-88          [-1, 128, 64, 64]         147,456
      BatchNorm2d-89          [-1, 128, 64, 64]             256
      BatchNorm2d-90          [-1, 128, 64, 64]             256
             ReLU-91          [-1, 128, 64, 64]               0
             ReLU-92          [-1, 128, 64, 64]               0
           Conv2d-93          [-1, 128, 64, 64]         147,456
           Conv2d-94          [-1, 128, 64, 64]         147,456
      BatchNorm2d-95          [-1, 128, 64, 64]             256
      BatchNorm2d-96          [-1, 128, 64, 64]             256
             ReLU-97          [-1, 128, 64, 64]               0
             ReLU-98          [-1, 128, 64, 64]               0
       BasicBlock-99          [-1, 128, 64, 64]               0
      BasicBlock-100          [-1, 128, 64, 64]               0
          Conv2d-101          [-1, 128, 64, 64]         147,456
          Conv2d-102          [-1, 128, 64, 64]         147,456
     BatchNorm2d-103          [-1, 128, 64, 64]             256
     BatchNorm2d-104          [-1, 128, 64, 64]             256
            ReLU-105          [-1, 128, 64, 64]               0
            ReLU-106          [-1, 128, 64, 64]               0
          Conv2d-107          [-1, 128, 64, 64]         147,456
          Conv2d-108          [-1, 128, 64, 64]         147,456
     BatchNorm2d-109          [-1, 128, 64, 64]             256
     BatchNorm2d-110          [-1, 128, 64, 64]             256
            ReLU-111          [-1, 128, 64, 64]               0
            ReLU-112          [-1, 128, 64, 64]               0
      BasicBlock-113          [-1, 128, 64, 64]               0
      BasicBlock-114          [-1, 128, 64, 64]               0
          Conv2d-115          [-1, 256, 32, 32]         294,912
          Conv2d-116          [-1, 256, 32, 32]         294,912
     BatchNorm2d-117          [-1, 256, 32, 32]             512
     BatchNorm2d-118          [-1, 256, 32, 32]             512
            ReLU-119          [-1, 256, 32, 32]               0
            ReLU-120          [-1, 256, 32, 32]               0
          Conv2d-121          [-1, 256, 32, 32]         589,824
          Conv2d-122          [-1, 256, 32, 32]         589,824
     BatchNorm2d-123          [-1, 256, 32, 32]             512
     BatchNorm2d-124          [-1, 256, 32, 32]             512
          Conv2d-125          [-1, 256, 32, 32]          32,768
          Conv2d-126          [-1, 256, 32, 32]          32,768
     BatchNorm2d-127          [-1, 256, 32, 32]             512
     BatchNorm2d-128          [-1, 256, 32, 32]             512
            ReLU-129          [-1, 256, 32, 32]               0
            ReLU-130          [-1, 256, 32, 32]               0
      BasicBlock-131          [-1, 256, 32, 32]               0
      BasicBlock-132          [-1, 256, 32, 32]               0
          Conv2d-133          [-1, 256, 32, 32]         589,824
          Conv2d-134          [-1, 256, 32, 32]         589,824
     BatchNorm2d-135          [-1, 256, 32, 32]             512
     BatchNorm2d-136          [-1, 256, 32, 32]             512
            ReLU-137          [-1, 256, 32, 32]               0
            ReLU-138          [-1, 256, 32, 32]               0
          Conv2d-139          [-1, 256, 32, 32]         589,824
          Conv2d-140          [-1, 256, 32, 32]         589,824
     BatchNorm2d-141          [-1, 256, 32, 32]             512
     BatchNorm2d-142          [-1, 256, 32, 32]             512
            ReLU-143          [-1, 256, 32, 32]               0
            ReLU-144          [-1, 256, 32, 32]               0
      BasicBlock-145          [-1, 256, 32, 32]               0
      BasicBlock-146          [-1, 256, 32, 32]               0
          Conv2d-147          [-1, 256, 32, 32]         589,824
          Conv2d-148          [-1, 256, 32, 32]         589,824
     BatchNorm2d-149          [-1, 256, 32, 32]             512
     BatchNorm2d-150          [-1, 256, 32, 32]             512
            ReLU-151          [-1, 256, 32, 32]               0
            ReLU-152          [-1, 256, 32, 32]               0
          Conv2d-153          [-1, 256, 32, 32]         589,824
          Conv2d-154          [-1, 256, 32, 32]         589,824
     BatchNorm2d-155          [-1, 256, 32, 32]             512
     BatchNorm2d-156          [-1, 256, 32, 32]             512
            ReLU-157          [-1, 256, 32, 32]               0
            ReLU-158          [-1, 256, 32, 32]               0
      BasicBlock-159          [-1, 256, 32, 32]               0
      BasicBlock-160          [-1, 256, 32, 32]               0
          Conv2d-161          [-1, 256, 32, 32]         589,824
          Conv2d-162          [-1, 256, 32, 32]         589,824
     BatchNorm2d-163          [-1, 256, 32, 32]             512
     BatchNorm2d-164          [-1, 256, 32, 32]             512
            ReLU-165          [-1, 256, 32, 32]               0
            ReLU-166          [-1, 256, 32, 32]               0
          Conv2d-167          [-1, 256, 32, 32]         589,824
          Conv2d-168          [-1, 256, 32, 32]         589,824
     BatchNorm2d-169          [-1, 256, 32, 32]             512
     BatchNorm2d-170          [-1, 256, 32, 32]             512
            ReLU-171          [-1, 256, 32, 32]               0
            ReLU-172          [-1, 256, 32, 32]               0
      BasicBlock-173          [-1, 256, 32, 32]               0
      BasicBlock-174          [-1, 256, 32, 32]               0
          Conv2d-175          [-1, 256, 32, 32]         589,824
          Conv2d-176          [-1, 256, 32, 32]         589,824
     BatchNorm2d-177          [-1, 256, 32, 32]             512
     BatchNorm2d-178          [-1, 256, 32, 32]             512
            ReLU-179          [-1, 256, 32, 32]               0
            ReLU-180          [-1, 256, 32, 32]               0
          Conv2d-181          [-1, 256, 32, 32]         589,824
          Conv2d-182          [-1, 256, 32, 32]         589,824
     BatchNorm2d-183          [-1, 256, 32, 32]             512
     BatchNorm2d-184          [-1, 256, 32, 32]             512
            ReLU-185          [-1, 256, 32, 32]               0
            ReLU-186          [-1, 256, 32, 32]               0
      BasicBlock-187          [-1, 256, 32, 32]               0
      BasicBlock-188          [-1, 256, 32, 32]               0
          Conv2d-189          [-1, 256, 32, 32]         589,824
          Conv2d-190          [-1, 256, 32, 32]         589,824
     BatchNorm2d-191          [-1, 256, 32, 32]             512
     BatchNorm2d-192          [-1, 256, 32, 32]             512
            ReLU-193          [-1, 256, 32, 32]               0
            ReLU-194          [-1, 256, 32, 32]               0
          Conv2d-195          [-1, 256, 32, 32]         589,824
          Conv2d-196          [-1, 256, 32, 32]         589,824
     BatchNorm2d-197          [-1, 256, 32, 32]             512
     BatchNorm2d-198          [-1, 256, 32, 32]             512
            ReLU-199          [-1, 256, 32, 32]               0
            ReLU-200          [-1, 256, 32, 32]               0
      BasicBlock-201          [-1, 256, 32, 32]               0
      BasicBlock-202          [-1, 256, 32, 32]               0
          Conv2d-203          [-1, 512, 16, 16]       1,179,648
          Conv2d-204          [-1, 512, 16, 16]       1,179,648
     BatchNorm2d-205          [-1, 512, 16, 16]           1,024
     BatchNorm2d-206          [-1, 512, 16, 16]           1,024
            ReLU-207          [-1, 512, 16, 16]               0
            ReLU-208          [-1, 512, 16, 16]               0
          Conv2d-209          [-1, 512, 16, 16]       2,359,296
          Conv2d-210          [-1, 512, 16, 16]       2,359,296
     BatchNorm2d-211          [-1, 512, 16, 16]           1,024
     BatchNorm2d-212          [-1, 512, 16, 16]           1,024
          Conv2d-213          [-1, 512, 16, 16]         131,072
          Conv2d-214          [-1, 512, 16, 16]         131,072
     BatchNorm2d-215          [-1, 512, 16, 16]           1,024
     BatchNorm2d-216          [-1, 512, 16, 16]           1,024
            ReLU-217          [-1, 512, 16, 16]               0
            ReLU-218          [-1, 512, 16, 16]               0
      BasicBlock-219          [-1, 512, 16, 16]               0
      BasicBlock-220          [-1, 512, 16, 16]               0
          Conv2d-221          [-1, 512, 16, 16]       2,359,296
          Conv2d-222          [-1, 512, 16, 16]       2,359,296
     BatchNorm2d-223          [-1, 512, 16, 16]           1,024
     BatchNorm2d-224          [-1, 512, 16, 16]           1,024
            ReLU-225          [-1, 512, 16, 16]               0
            ReLU-226          [-1, 512, 16, 16]               0
          Conv2d-227          [-1, 512, 16, 16]       2,359,296
          Conv2d-228          [-1, 512, 16, 16]       2,359,296
     BatchNorm2d-229          [-1, 512, 16, 16]           1,024
     BatchNorm2d-230          [-1, 512, 16, 16]           1,024
            ReLU-231          [-1, 512, 16, 16]               0
            ReLU-232          [-1, 512, 16, 16]               0
      BasicBlock-233          [-1, 512, 16, 16]               0
      BasicBlock-234          [-1, 512, 16, 16]               0
          Conv2d-235          [-1, 512, 16, 16]       2,359,296
          Conv2d-236          [-1, 512, 16, 16]       2,359,296
     BatchNorm2d-237          [-1, 512, 16, 16]           1,024
     BatchNorm2d-238          [-1, 512, 16, 16]           1,024
            ReLU-239          [-1, 512, 16, 16]               0
            ReLU-240          [-1, 512, 16, 16]               0
          Conv2d-241          [-1, 512, 16, 16]       2,359,296
          Conv2d-242          [-1, 512, 16, 16]       2,359,296
     BatchNorm2d-243          [-1, 512, 16, 16]           1,024
     BatchNorm2d-244          [-1, 512, 16, 16]           1,024
            ReLU-245          [-1, 512, 16, 16]               0
            ReLU-246          [-1, 512, 16, 16]               0
      BasicBlock-247          [-1, 512, 16, 16]               0
      BasicBlock-248          [-1, 512, 16, 16]               0
          Conv2d-249          [-1, 512, 16, 16]         262,656
            ReLU-250          [-1, 512, 16, 16]               0
        Upsample-251          [-1, 512, 32, 32]               0
          Conv2d-252          [-1, 256, 32, 32]          65,792
            ReLU-253          [-1, 256, 32, 32]               0
          Conv2d-254          [-1, 512, 32, 32]       3,539,456
            ReLU-255          [-1, 512, 32, 32]               0
        Upsample-256          [-1, 512, 64, 64]               0
          Conv2d-257          [-1, 128, 64, 64]          16,512
            ReLU-258          [-1, 128, 64, 64]               0
          Conv2d-259          [-1, 256, 64, 64]       1,474,816
            ReLU-260          [-1, 256, 64, 64]               0
        Upsample-261        [-1, 256, 128, 128]               0
          Conv2d-262         [-1, 64, 128, 128]           4,160
            ReLU-263         [-1, 64, 128, 128]               0
          Conv2d-264        [-1, 256, 128, 128]         737,536
            ReLU-265        [-1, 256, 128, 128]               0
        Upsample-266        [-1, 256, 256, 256]               0
          Conv2d-267         [-1, 64, 256, 256]           4,160
            ReLU-268         [-1, 64, 256, 256]               0
          Conv2d-269        [-1, 128, 256, 256]         368,768
            ReLU-270        [-1, 128, 256, 256]               0
        Upsample-271        [-1, 128, 512, 512]               0
          Conv2d-272         [-1, 64, 512, 512]         110,656
            ReLU-273         [-1, 64, 512, 512]               0
          Conv2d-274          [-1, 1, 512, 512]              65
================================================================
Total params: 49,192,641
Trainable params: 49,192,641
Non-trainable params: 0
----------------------------------------------------------------
Input size (MB): 3.00
Forward/backward pass size (MB): 2522.00
Params size (MB): 187.66
Estimated Total Size (MB): 2712.66
----------------------------------------------------------------
Start training now...
…
    (1): ReLU(inplace=True)
  )
  (conv_original_size1): Sequential(
    (0): Conv2d(64, 64, kernel_size=(3, 3), stride=(1, 1), padding=(1, 1))
    (1): ReLU(inplace=True)
  )
  (conv_original_size2): Sequential(
    (0): Conv2d(192, 64, kernel_size=(3, 3), stride=(1, 1), padding=(1, 1))
    (1): ReLU(inplace=True)
  )
  (conv_last): Conv2d(64, 1, kernel_size=(1, 1), stride=(1, 1))
)
----------------------------------------------------------------
        Layer (type)               Output Shape         Param #
================================================================
            Conv2d-1         [-1, 64, 512, 512]           1,792
              ReLU-2         [-1, 64, 512, 512]               0
            Conv2d-3         [-1, 64, 512, 512]          36,928
              ReLU-4         [-1, 64, 512, 512]               0
            Conv2d-5         [-1, 64, 256, 256]           9,408
            Conv2d-6         [-1, 64, 256, 256]           9,408
       BatchNorm2d-7         [-1, 64, 256, 256]             128
       BatchNorm2d-8         [-1, 64, 256, 256]             128
              ReLU-9         [-1, 64, 256, 256]               0
             ReLU-10         [-1, 64, 256, 256]               0
        MaxPool2d-11         [-1, 64, 128, 128]               0
        MaxPool2d-12         [-1, 64, 128, 128]               0
           Conv2d-13         [-1, 64, 128, 128]          36,864
           Conv2d-14         [-1, 64, 128, 128]          36,864
      BatchNorm2d-15         [-1, 64, 128, 128]             128
      BatchNorm2d-16         [-1, 64, 128, 128]             128
             ReLU-17         [-1, 64, 128, 128]               0
             ReLU-18         [-1, 64, 128, 128]               0
           Conv2d-19         [-1, 64, 128, 128]          36,864
           Conv2d-20         [-1, 64, 128, 128]          36,864
      BatchNorm2d-21         [-1, 64, 128, 128]             128
      BatchNorm2d-22         [-1, 64, 128, 128]             128
             ReLU-23         [-1, 64, 128, 128]               0
             ReLU-24         [-1, 64, 128, 128]               0
       BasicBlock-25         [-1, 64, 128, 128]               0
       BasicBlock-26         [-1, 64, 128, 128]               0
           Conv2d-27         [-1, 64, 128, 128]          36,864
           Conv2d-28         [-1, 64, 128, 128]          36,864
      BatchNorm2d-29         [-1, 64, 128, 128]             128
      BatchNorm2d-30         [-1, 64, 128, 128]             128
             ReLU-31         [-1, 64, 128, 128]               0
             ReLU-32         [-1, 64, 128, 128]               0
           Conv2d-33         [-1, 64, 128, 128]          36,864
           Conv2d-34         [-1, 64, 128, 128]          36,864
      BatchNorm2d-35         [-1, 64, 128, 128]             128
      BatchNorm2d-36         [-1, 64, 128, 128]             128
             ReLU-37         [-1, 64, 128, 128]               0
             ReLU-38         [-1, 64, 128, 128]               0
       BasicBlock-39         [-1, 64, 128, 128]               0
       BasicBlock-40         [-1, 64, 128, 128]               0
           Conv2d-41          [-1, 128, 64, 64]          73,728
           Conv2d-42          [-1, 128, 64, 64]          73,728
      BatchNorm2d-43          [-1, 128, 64, 64]             256
      BatchNorm2d-44          [-1, 128, 64, 64]             256
             ReLU-45          [-1, 128, 64, 64]               0
             ReLU-46          [-1, 128, 64, 64]               0
           Conv2d-47          [-1, 128, 64, 64]         147,456
           Conv2d-48          [-1, 128, 64, 64]         147,456
      BatchNorm2d-49          [-1, 128, 64, 64]             256
      BatchNorm2d-50          [-1, 128, 64, 64]             256
           Conv2d-51          [-1, 128, 64, 64]           8,192
           Conv2d-52          [-1, 128, 64, 64]           8,192
      BatchNorm2d-53          [-1, 128, 64, 64]             256
      BatchNorm2d-54          [-1, 128, 64, 64]             256
             ReLU-55          [-1, 128, 64, 64]               0
             ReLU-56          [-1, 128, 64, 64]               0
       BasicBlock-57          [-1, 128, 64, 64]               0
       BasicBlock-58          [-1, 128, 64, 64]               0
           Conv2d-59          [-1, 128, 64, 64]         147,456
           Conv2d-60          [-1, 128, 64, 64]         147,456
      BatchNorm2d-61          [-1, 128, 64, 64]             256
      BatchNorm2d-62          [-1, 128, 64, 64]             256
             ReLU-63          [-1, 128, 64, 64]               0
             ReLU-64          [-1, 128, 64, 64]               0
           Conv2d-65          [-1, 128, 64, 64]         147,456
           Conv2d-66          [-1, 128, 64, 64]         147,456
      BatchNorm2d-67          [-1, 128, 64, 64]             256
      BatchNorm2d-68          [-1, 128, 64, 64]             256
             ReLU-69          [-1, 128, 64, 64]               0
             ReLU-70          [-1, 128, 64, 64]               0
       BasicBlock-71          [-1, 128, 64, 64]               0
       BasicBlock-72          [-1, 128, 64, 64]               0
           Conv2d-73          [-1, 256, 32, 32]         294,912
           Conv2d-74          [-1, 256, 32, 32]         294,912
      BatchNorm2d-75          [-1, 256, 32, 32]             512
      BatchNorm2d-76          [-1, 256, 32, 32]             512
             ReLU-77          [-1, 256, 32, 32]               0
             ReLU-78          [-1, 256, 32, 32]               0
           Conv2d-79          [-1, 256, 32, 32]         589,824
           Conv2d-80          [-1, 256, 32, 32]         589,824
      BatchNorm2d-81          [-1, 256, 32, 32]             512
      BatchNorm2d-82          [-1, 256, 32, 32]             512
           Conv2d-83          [-1, 256, 32, 32]          32,768
           Conv2d-84          [-1, 256, 32, 32]          32,768
      BatchNorm2d-85          [-1, 256, 32, 32]             512
      BatchNorm2d-86          [-1, 256, 32, 32]             512
             ReLU-87          [-1, 256, 32, 32]               0
             ReLU-88          [-1, 256, 32, 32]               0
       BasicBlock-89          [-1, 256, 32, 32]               0
       BasicBlock-90          [-1, 256, 32, 32]               0
           Conv2d-91          [-1, 256, 32, 32]         589,824
           Conv2d-92          [-1, 256, 32, 32]         589,824
      BatchNorm2d-93          [-1, 256, 32, 32]             512
      BatchNorm2d-94          [-1, 256, 32, 32]             512
             ReLU-95          [-1, 256, 32, 32]               0
             ReLU-96          [-1, 256, 32, 32]               0
           Conv2d-97          [-1, 256, 32, 32]         589,824
           Conv2d-98          [-1, 256, 32, 32]         589,824
      BatchNorm2d-99          [-1, 256, 32, 32]             512
     BatchNorm2d-100          [-1, 256, 32, 32]             512
            ReLU-101          [-1, 256, 32, 32]               0
            ReLU-102          [-1, 256, 32, 32]               0
      BasicBlock-103          [-1, 256, 32, 32]               0
      BasicBlock-104          [-1, 256, 32, 32]               0
          Conv2d-105          [-1, 512, 16, 16]       1,179,648
          Conv2d-106          [-1, 512, 16, 16]       1,179,648
     BatchNorm2d-107          [-1, 512, 16, 16]           1,024
     BatchNorm2d-108          [-1, 512, 16, 16]           1,024
            ReLU-109          [-1, 512, 16, 16]               0
            ReLU-110          [-1, 512, 16, 16]               0
          Conv2d-111          [-1, 512, 16, 16]       2,359,296
          Conv2d-112          [-1, 512, 16, 16]       2,359,296
     BatchNorm2d-113          [-1, 512, 16, 16]           1,024
     BatchNorm2d-114          [-1, 512, 16, 16]           1,024
          Conv2d-115          [-1, 512, 16, 16]         131,072
          Conv2d-116          [-1, 512, 16, 16]         131,072
     BatchNorm2d-117          [-1, 512, 16, 16]           1,024
     BatchNorm2d-118          [-1, 512, 16, 16]           1,024
            ReLU-119          [-1, 512, 16, 16]               0
            ReLU-120          [-1, 512, 16, 16]               0
      BasicBlock-121          [-1, 512, 16, 16]               0
      BasicBlock-122          [-1, 512, 16, 16]               0
          Conv2d-123          [-1, 512, 16, 16]       2,359,296
          Conv2d-124          [-1, 512, 16, 16]       2,359,296
     BatchNorm2d-125          [-1, 512, 16, 16]           1,024
     BatchNorm2d-126          [-1, 512, 16, 16]           1,024
            ReLU-127          [-1, 512, 16, 16]               0
            ReLU-128          [-1, 512, 16, 16]               0
          Conv2d-129          [-1, 512, 16, 16]       2,359,296
          Conv2d-130          [-1, 512, 16, 16]       2,359,296
     BatchNorm2d-131          [-1, 512, 16, 16]           1,024
     BatchNorm2d-132          [-1, 512, 16, 16]           1,024
            ReLU-133          [-1, 512, 16, 16]               0
            ReLU-134          [-1, 512, 16, 16]               0
      BasicBlock-135          [-1, 512, 16, 16]               0
      BasicBlock-136          [-1, 512, 16, 16]               0
          Conv2d-137          [-1, 512, 16, 16]         262,656
            ReLU-138          [-1, 512, 16, 16]               0
        Upsample-139          [-1, 512, 32, 32]               0
          Conv2d-140          [-1, 256, 32, 32]          65,792
            ReLU-141          [-1, 256, 32, 32]               0
          Conv2d-142          [-1, 512, 32, 32]       3,539,456
            ReLU-143          [-1, 512, 32, 32]               0
        Upsample-144          [-1, 512, 64, 64]               0
          Conv2d-145          [-1, 128, 64, 64]          16,512
            ReLU-146          [-1, 128, 64, 64]               0
          Conv2d-147          [-1, 256, 64, 64]       1,474,816
            ReLU-148          [-1, 256, 64, 64]               0
        Upsample-149        [-1, 256, 128, 128]               0
          Conv2d-150         [-1, 64, 128, 128]           4,160
            ReLU-151         [-1, 64, 128, 128]               0
          Conv2d-152        [-1, 256, 128, 128]         737,536
            ReLU-153        [-1, 256, 128, 128]               0
        Upsample-154        [-1, 256, 256, 256]               0
          Conv2d-155         [-1, 64, 256, 256]           4,160
            ReLU-156         [-1, 64, 256, 256]               0
          Conv2d-157        [-1, 128, 256, 256]         368,768
            ReLU-158        [-1, 128, 256, 256]               0
        Upsample-159        [-1, 128, 512, 512]               0
          Conv2d-160         [-1, 64, 512, 512]         110,656
            ReLU-161         [-1, 64, 512, 512]               0
          Conv2d-162          [-1, 1, 512, 512]              65
================================================================
Total params: 28,976,321
Trainable params: 28,976,321
Non-trainable params: 0
----------------------------------------------------------------
Input size (MB): 3.00
Forward/backward pass size (MB): 2172.00
Params size (MB): 110.54
Estimated Total Size (MB): 2285.54
----------------------------------------------------------------
Start training now...
…
